src/devin_experiments/franka/dqn_franka_kitchen_model.pth (torch, 434477 bytes, 24 tensors)

fc1.weight f4 [128, 59]
-0.05958438 0.05201713 -0.10189406 0.11445925 -0.0913519 -0.057369854 -0.10712413 -0.057235345
0.05037024 -0.07883871 -0.088776134 0.091447406 -0.12845673 -0.11862932 0.07254332 0.009477541
-0.08443516 -0.080773756 -0.095841706 -0.01963559 -0.05967624 0.08926086 0.016217975 -0.023160974
0.017564297 -0.07835164 -0.014233778 -0.014526155 -0.10646353 -0.1065458 -0.11397716 -0.08706049
0.094225794 -0.038574733 -0.07162387 -0.12046487 -0.00054427685 -0.0033476984 -0.060101233 0.059019726
-0.025709717 -0.054934327 0.009311465 0.10006422 0.04354598 -0.04240665 -0.11178652 -0.063159056
0.030134624 -0.027585292 -0.08358897 -0.013310526 0.022264494 -0.09781417 -0.0024634465 -0.07010154
0.06828982 0.07526863 0.0031041007 0.040014055 0.15465982 0.036952812 0.16864166 0.05164693
-0.12034085 0.028585779 -0.06145988 -0.061806235 -0.100961775 -0.053299755 0.028812652 0.07986675
-0.030100865 0.020108908 0.055494558 0.010220133 0.07058908 -0.08450056 0.097527385 0.04383401
-0.08166469 0.04731809 0.10363767 0.12040174 -0.048020706 0.068582766 -0.015563791 0.035171505
0.05767378 -0.03633066 -0.08534104 0.05912412 -0.15238878 -0.06256101 -0.014959776 0.03354724
-0.14126894 0.059411526 0.047009822 -0.08820833 0.054268144 0.07170077 -0.02814415 0.108838625
0.102705665 -0.09210174 0.018678365 0.021590734 -0.12907824 -0.09818001 0.08007726 0.027243687
-0.0807806 0.029951451 0.02912715 -0.058860995 0.13735941 0.0548312 0.03119214 0.058899637
-0.17633197 0.019016728 -0.13217275 -0.03498885 -0.07009488 0.11915524 0.10025275 -0.1113247
-0.00522787 0.12289582 -0.10809519 -0.03848993 -0.24359699 0.05308683 0.23774022 0.14766143
0.027672347 0.116650864 0.014134597 0.0034281104 -0.023238588 -0.08330047 0.09831676 0.04559089
0.016522922 -0.0024369396 -0.004173607 -0.0066421204 -0.01630633 -0.0052630357 -0.11603181 0.057674587
-0.18078756 -0.12748365 -0.14131464 0.14509436 -0.19349432 0.123719156 -0.015680877 -0.004347109
0.060285304 -0.09367324 0.056317154 -0.0034217944 0.0561206 -0.02798387 -0.044752464 0.08700875
0.08111076 0.02423102 0.00048389618 0.11832292 -0.22742909 -0.01093638 -0.12992813 0.015113236
0.15103517 -0.038097803 0.16814624 -0.15498678 0.16258381 -0.07820279 0.02250909 0.043648988
0.038555566 -0.18997154 0.0917579 -0.053544834 0.08119677 -0.06991916 0.036755472 -0.0613497
-0.019893201 -0.053507764 -0.07903186 0.10836817 0.06990604 -0.11318792 0.077466175 -0.10614886
-0.11700868 -0.09275219 0.09410941 -0.118268035 0.054358453 -0.025348306 -0.059557285 0.07159173
0.12396126 0.07969942 -0.20235355 0.014129967 -0.017586209 -0.02526733 -0.06381647 0.0145924045
0.07960333 -0.002955369 -0.031328373 0.04602253 0.07555351 -0.049406845 0.11905441 0.101665586
0.11818984 -0.00751694 -0.06816454 -0.07775499 -0.03277056 0.023028998 -0.15942591 -0.0044469065
0.10044088 -0.009412685 0.103023306 0.0535231 0.105504006 0.121408165 -0.060684223 0.044341657
-0.11127663 -0.10486527 -0.016931096 0.013312232 -0.0025363525 -0.10810917 0.021747058 -0.058736537
0.015671834 -0.12792133 -0.031443022 -0.15404776 -0.0030593004 -0.08188233 0.0830916 0.026584435
00000000: c00e 74bd ea0f 553d d5ad d0bd 9c69 ea3d
00000010: b416 bbbd a7fc 6abd e563 dbbd 9c6f 6abd
00000020: 0651 4e3d 3176 a1bd 43d0 b5bd c748 bb3d
00000030: 298a 03be eef3 f2bd 9891 943d b047 1b3c
00000040: 57ec acbd b66c a5bd a848 c4bd d1da a0bc
00000050: 136f 74bd 66ce b63d 8fdb 843c 15bc bdbc
00000060: 00e3 8f3c d376 a0bd cb34 69bc 1cff 6dbc
00000070: 8d09 dabd af34 dabd db6c e9bd c54c b2bd
00000080: 74f9 c03d 8a00 1ebd 89af 92bd 49b6 f6bd
00000090: cdad 0eba 0f65 5bbb b62c 76bd abbe 713d
000000a0: 2f9d d2bc d102 61bd 1d8f 183c 78ee cc3d
000000b0: 455d 323d 98b2 2dbd 55f0 e4bd 8959 81bd
000000c0: e3dc f63c 8dfa e1bc b230 abbd 6414 5abc
000000d0: 0764 b63c cc52 c8bd c671 21bb 6591 8fbd
000000e0: 88db 8b3d 7126 9a3d 2b6e 4b3b c7e5 233d
000000f0: 255f 1e3e d55b 173d 66b0 2c3e bb8b 533d
00000100: 4375 f6bd b92c ea3c 5bbd 7bbd 8928 7dbd
00000110: 0cc5 cebd d850 5abd 8308 ec3c 2e91 a33d
00000120: 1796 f6bc 70bb a43c 434e 633d 5872 273c
00000130: 0291 903d a10e adbd 70bc c73d 4a8b 333d
00000140: d13f a7bd 9dd0 413d fd3f d43d 3095 f63d
00000150: 5cb1 44bd 1f75 8c3d 45ff 7ebc ff0f 103d
00000160: 573b 6c3d 75cf 14bd 48c7 aebd 222c 723d
00000170: ce0b 1cbe fd1f 80bd d919 75bc d568 093d
00000180: cea8 10be 8059 733d 5f8d 403d 92a6 b4bd
00000190: 4648 5e3d dad7 923d 8f8e e6bc c9e6 de3d
000001a0: 5957 d23d d69f bcbd 5f03 993c 0ddf b03c
000001b0: 162d 04be 9a12 c9bd 8cff a33d 272e df3c
000001c0: 4d70 a5bd bf5c f53c 109c ee3c 3a18 71bd
000001d0: f2a7 0c3e ae96 603d a986 ff3c bf40 713d
000001e0: 5e90 34be f8c8 9b3c 4b58 07be 7850 0fbd
000001f0: e88d 8fbd aa07 f43d 5051 cd3d 34fe e3bd
00000200: 8d4e abbb ceb0 fb3d 0361 ddbd 9ea7 1dbd
00000210: 7d71 79be 9371 593d 2c72 733e 8f34 173e
00000220: 1eb1 e23c a6e6 ee3d cc94 673c 26aa 603b
00000230: da5e bebc 7099 aabd 4c5a c93d 83bd 3a3d
00000240: 145b 873c 10b5 1fbb c1c2 88bb 25a6 d9bb
00000250: da94 85bc 8b75 acbb 16a2 edbd 303c 6c3d
00000260: 6020 39be 138b 02be c9b4 10be 9e93 143e
00000270: 6023 46be 7860 fd3d 2f75 80bc 3172 8ebb
00000280: b9ed 763d c1d7 bfbd d1ac 663d 2f40 60bb
00000290: b7de 653d 6e3e e5bc 5c4e 37bd a531 b23d
000002a0: 661d a63d 2280 c63c 72b3 fd39 4953 f23d
000002b0: 2ce3 68be 812e 33bc e10b 05be 829d 773c
000002c0: f7a8 1a3e 710c 1cbd 872e 2c3e dbb4 1ebe
000002d0: 5f7c 263e c928 a0bd fc64 b83c 48c9 323d
000002e0: 71ec 1d3d e687 42be 91eb bb3d d451 5bbd
000002f0: 7e4a a63d c731 8fbd e88c 163d d349 7bbd
00000300: 11f7 a2bc f52a 5bbd 75db a1bd 22f0 dd3d
00000310: e62a 8f3d 11cf e7bd 96a6 9e3d 9364 d9bd
00000320: 3fa2 efbd dcf4 bdbd 6fbc c03d 8336 f2bd
00000330: f8a6 5e3d 40a7 cfbc 57f2 73bd af9e 923d
00000340: 67df fd3d 7339 a33d c535 4fbe 6181 673c
00000350: f410 90bc 6ffd cebc 36b2 82bd fb14 6f3c
00000360: 1207 a33d ddae 41bb 2e52 00bd 1f82 3c3d
00000370: ccbb 9a3d d55e 4abd ccd2 f33d 0c36 d03d
00000380: 840d f23d aa50 f6bb da99 8bbd 023e 9fbd
00000390: 6c3a 06bd 4fa7 bc3c 8c40 23be 5bb7 91bb
000003a0: f3b3 cd3d aa37 1abc e2fd d23d 0a3b 5b3d
000003b0: 7c12 d83d d8a4 f83d 0590 78bd 999f 353d
000003c0: 00e5 e3bd 9ac3 d6bd 15b3 8abc 8c1b 5a3c
000003d0: ef38 26bb 5768 ddbd e326 b23c b995 70bd
000003e0: 3862 803c cffd 02be 66ca 00bd b2be 1dbe
000003f0: 8b7e 48bb ecb1 a7bd ee2b aa3d 9ac7 d93c

fc1.bias f4 [128]
0.00797295 -0.0014392178 0.03169801 0.0034006033 -0.075440116 0.08798263 -0.1250944 -0.13848054
-0.029093087 -0.02636449 -0.05501822 -0.38315785 -0.059410416 -0.09878334 -0.16506761 0.13863625
0.26253018 -0.16195539 0.030060777 -0.052189328 0.011279355 -0.0039216215 -0.25453538 -0.19716932
-0.038205743 -0.018285178 -0.12536854 0.020140115 -0.12426641 -0.08717047 0.25811848 -0.07706091
-0.08164315 0.09190515 -0.10894556 0.020572456 -0.11633557 0.067149915 -0.10744843 -0.12477899
0.23953918 -0.04509688 -0.05811047 0.043016877 -0.12423021 -0.11153335 0.027664784 -0.18804768
0.067397885 -0.04296687 -0.108311266 -0.18549202 -0.017206542 0.100711815 -0.005742431 -0.12370464
-0.03553781 0.041399416 -0.08510479 -0.12684844 -0.017952783 0.034431577 -0.021407427 0.17985617
-0.051424116 0.17831236 -0.011590813 -0.16126484 -0.11794156 -0.117416956 -0.16201408 -0.122399405
-0.030797658 -0.19138815 0.0636896 0.043287918 -0.1995155 0.04037811 -0.051160313 -0.14563817
-0.14326075 -0.06756872 -0.12163751 -0.07998468 -0.05233337 0.0487149 0.024667468 -0.051610626
-0.13560672 -0.08148003 -0.0067789243 0.010594384 -0.16277635 0.0032212422 -0.0040543377 -0.019701637
-0.105370395 -0.17885041 0.036324587 -0.07800626 0.120374486 -0.14310999 0.0839618 -0.15017325
0.02850758 -0.118608676 -0.1391671 0.05754044 0.05338344 -0.09350358 -0.122399986 -0.050994117
-0.13841629 -0.031622384 0.043460287 -0.12774238 -0.046511583 0.074612394 0.08225349 -0.16216823
0.0038007223 -0.21704139 -0.012231802 -0.14798395 -0.21810949 -0.06555362 -0.18061261 -0.05050035
00000000: faa0 023c 23a4 bcba c6d5 013d a8dc 5e3b
00000010: 5980 9abd 3d30 b43d bf18 00be d8cd 0dbe
00000020: a054 eebc 58fa d7bc c95a 61bd 442d c4be
00000030: 5658 73bd eb4e cabd 7c07 29be a9f6 0d3e
00000040: 5b6a 863e a2d7 25be 0542 f63c 7ac4 55bd
00000050: 0bcd 383c f280 80bb 7652 82be c1e6 49be
00000060: a07d 1cbd ccca 95bc 9c60 00be e2fc a43c
00000070: 637f febd 6e86 b2bd 1b28 843e 1cd2 9dbd
00000080: 8634 a7bd c438 bc3d da1e dfbd 9187 a83c
00000090: 5841 eebd e585 893d ec0d dcbd 218c ffbd
000000a0: c249 753e 82b7 38bd 3f05 6ebd 7732 303d
000000b0: 696c febd 996b e4bd 42a1 e23c 928f 40be
000000c0: e707 8a3d 07fe 2fbd 4cd2 ddbd 9ff1 3dbe
000000d0: bcf4 8cbc ff41 ce3d 012b bcbb dc58 fdbd
000000e0: 1890 11bd 6f92 293d 6c4b aebd 8fe4 01be
000000f0: b711 93bc 2008 0d3d a15e afbc 372c 383e
00000100: 18a2 52bd 8497 363e 65e7 3dbc 9c22 25be
00000110: 588b f1bd 4d78 f0bd 05e7 25be 8aac fabd
00000120: 5f4b fcbc 41fb 43be b16f 823d ac4e 313d
00000130: cb4d 4cbe 8463 253d 7a8d 51bd 2c22 15be
00000140: f2b2 12be 7861 8abd 161d f9bd 02cf a3bd
00000150: 845b 56bd 4689 473d 6e13 ca3c aa65 53bd
00000160: 7ddc 0abe 01df a6bd bd21 debb 1194 2d3c
00000170: d8ae 26be 7a1b 533b 40da 84bb 5465 a1bc
00000180: 6fcc d7bd 9024 37be 17c9 143d bfc1 9fbd
00000190: e686 f63d 6d8b 12be 2af4 ab3d 04c7 19be
000001a0: ba88 e93c 1be9 f2bd d281 0ebe 86af 6b3d
000001b0: 98a8 5a3d ce7e bfbd d8ac fabd 35df 50bd
000001c0: 00bd 0dbe 7986 01bd 6a03 323d e6ce 02be
000001d0: ee82 3ebd 62ce 983d 8574 a83d 6e0f 26be
000001e0: 8a15 793b 1940 5ebe e567 48bc 1b89 17be
000001f0: 1858 5fbe fa40 86bd 83f2 38be 74d9 4ebd

fc2.weight f4 [128, 128]
-0.01937323 0.020202195 -0.07431972 -0.052522283 -0.068909556 -0.019829586 -0.027665092 0.07143514
0.046547864 0.07298106 0.056269024 0.03131726 0.027519932 0.060463827 -0.04847871 -0.093599364
-0.10133002 -0.039524537 -0.044749975 -0.070843205 -0.10598782 -0.055350892 -0.0035880455 0.0402626
-0.015901458 -0.009036844 -0.020364903 0.006719767 0.05017791 -0.051763307 -0.064230375 -0.09299362
-0.020559879 -0.035011332 -0.051539376 0.07961549 0.049619064 -0.08464814 -0.021761019 0.009351079
-0.096409254 -0.12627275 -0.0765902 -0.061903235 -0.0089036375 0.044319756 0.0014859714 -0.01583846
0.06608336 0.036589395 0.025555879 -0.06575458 0.070847236 0.03746642 0.012130315 0.025902778
0.02324406 -0.029669305 0.0344665 0.016619068 -0.079627335 0.011317085 -0.05508198 0.013975387
-0.01745711 -0.07838953 -0.078099795 0.0072874115 0.035281602 -0.08510131 -0.078158244 -0.083233595
0.049838174 -0.046090774 0.0056767208 0.03450265 -0.08476069 0.024880538 0.007386446 -0.049229458
-0.040727656 -0.060216095 -0.005124593 0.031061416 -0.06819999 -0.10674962 -0.02299378 -0.045806576
0.00519678 -0.028956395 0.03884011 0.019804161 -0.004219816 0.054840185 -0.005111696 -0.04762071
-0.052374993 0.07673632 -0.08672143 -0.07206606 -0.0040739775 -0.03408233 -0.049268454 0.04193528
0.050315738 -0.0554368 0.0628014 0.049958777 -0.008241079 -0.14367162 -0.03984686 -0.06395385
-0.04724748 -0.03551047 -0.041198883 -0.07141813 -0.029431144 -0.0035774878 0.08767556 -0.0056159515
-0.07595651 0.010026752 0.010065268 0.023857974 0.07460323 -0.060430773 0.014553412 -0.10631651
-0.047761504 -0.019755017 0.03131294 0.028009878 -0.007373022 -0.07382277 -0.02219475 0.07059575
0.06614734 0.06296385 0.023956627 -0.01630454 -0.014947422 0.080787815 -0.009723857 -0.03166004
-0.1704091 -0.059813373 -0.021188485 0.048361033 -0.022454502 0.073244445 0.015333508 0.05647829
-0.019581236 0.045001633 -0.049894165 0.002062614 -0.040820815 0.05305834 -0.06793841 0.020446096
-0.071812645 -0.07566931 0.00051474513 0.028277721 -0.034441214 -0.060270667 -0.074119985 -0.08481178
-0.11350881 -0.05594689 -0.027734945 -5.7635816e-06 0.037100565 -0.070020504 0.0112554105 -0.059383232
-0.07889423 -0.0070249313 -0.06667091 -0.103506714 0.07435879 -0.051866923 -0.026283607 0.08510332
-0.068124354 0.0687382 -0.030969882 -0.006527925 0.039690066 -0.09971194 -0.07763474 -0.1516581
0.02737287 -0.09956083 -0.08543607 -0.08470492 0.045722988 -0.011021198 0.08174716 0.08455321
-0.084847264 -0.008076084 -0.11822546 0.07046879 0.032667294 0.05879873 -0.034828722 -0.0040677716
-0.07463065 0.0228966 0.014717448 -0.0059891515 -0.023457503 0.025008563 -0.121412694 -0.06572969
0.013892581 -0.017565005 0.018451879 -0.08048279 -0.0032705006 -0.06498985 0.050627016 0.07826133
0.07877602 0.059544917 0.050174873 0.039629195 -0.047265608 0.0021066365 -0.07540053 -0.05459557
-0.008314192 0.036916677 0.052571047 -0.011331517 0.011235907 0.04390881 0.017834425 0.053013075
0.05931896 -0.021230407 0.051489193 0.05708742 -0.018430037 0.004742785 0.013139006 -0.07123389
0.060483087 0.05132198 0.0012571983 -0.0009373456 0.053112194 -0.012086072 0.040945094 -0.03265764
00000000: 9cb4 9ebc 137f a53c f034 98bd 9b21 57bd
00000010: 7420 8dbd a871 a2bc e7a1 e2bc 964c 923d
00000020: f9a8 3e3d 1877 953d 597a 663d 8746 003d
00000030: 7b71 e13c eba8 773d 9d91 46bd 06b1 bfbd
00000040: 1d86 cfbd 7be4 21bd c04b 37bd 3e16 91bd
00000050: 2410 d9bd 9eb7 62bd 6a25 6bbb 65ea 243d
00000060: c643 82bc 450f 14bc 4cd4 a6bc 7e31 dc3b
00000070: 5a87 4d3d c305 54bd 378b 83bd 7073 bebd
00000080: 316d a8bc 0b68 0fbd f41a 53bd 720d a33d
00000090: 5c3d 4b3d 015c adbd 2a44 b2bc 4535 193c
000000a0: 3772 c5bd a54d 01be 53db 9cbd 3f8e 7dbd
000000b0: 90e0 11bc a288 353d edc4 c23a a8bf 81bc
000000c0: b656 873d c3de 153d 905a d13c 56aa 86bd
000000d0: 5b18 913d 6476 193d 3bbe 463c 1032 d43c
000000e0: 546a be3c 0b0d f3bc bf2c 0d3d b624 883c
000000f0: a813 a3bd 4b6b 393c a49d 61bd 06f9 643c
00000100: 3702 8fbc b18a a0bd c9f2 9fbd 3dcb ee3b
00000110: 7183 103d 9849 aebd 6e11 a0bd 6076 aabd
00000120: 1d23 4c3d aec9 3cbd c903 ba3b a752 0d3d
00000130: 0397 adbd 45d2 cb3c 000a f23b d4a4 49bd
00000140: 0bd2 26bd 27a5 76bd 34ec a7bb 8374 fe3c
00000150: 70ac 8bbd 8b9f dabd 745d bcbc ad9f 3bbd
00000160: c049 aa3b f635 edbc cf16 1f3d 563c a23c
00000170: 6246 8abb 1aa0 603d 0480 a7bb ef0d 43bd
00000180: 2987 56bd ef27 9d3d 019b b1bd 5f97 93bd
00000190: 007f 85bb ea99 0bbd b8cd 49bd 54c4 2b3d
000001a0: e017 4e3d b311 63bd 059e 803d 93a1 4c3d
000001b0: 9705 07bc a71e 13be 7636 23bd 3cfa 82bd
000001c0: 9386 41bd 6d73 11bd 29c0 28bd ab43 92bd
000001d0: 9519 f1bc 4974 6abb 3e8f b33d 0406 b8bb
000001e0: 168f 9bbd 3f47 243c cbe8 243c cc71 c33c
000001f0: 94c9 983d 4286 77bd 6f71 6e3c 78bc d9bd
00000200: 91a1 43bd 46d5 a1bc ff41 003d f974 e53c
00000210: 6499 f1bb 6430 97bd c4d1 b5bc 8194 903d
00000220: 4278 873d 31f3 803d b040 c43c 1991 85bc
00000230: 08e6 74bc 1574 a53d d050 1fbc f5ad 01bd
00000240: b97f 2ebe defe 74bd 7993 adbc 3816 463d
00000250: 81f2 b7bc 2f01 963d 6539 7b3c c855 673d
00000260: d468 a0bc a253 383d d35d 4cbd ec2c 073b
00000270: ba33 27bd b453 593d 4b23 8bbd 927e a73c
00000280: 8212 93bd 83f8 9abd f6ef 063a aea6 e73c
00000290: 3b12 0dbd 60de 76bd 38cc 97bd ccb1 adbd
000002a0: 4f77 e8bd 9128 65bd 6534 e3bc ca64 c1b6
000002b0: c3f6 173d e966 8fbd 9d68 383c d53b 73bd
000002c0: 4c93 a1bd 6531 e6bb c28a 88bd 54fb d3bd
000002d0: 6c49 983d 6972 54bd b850 d7bc a64a ae3d
000002e0: c884 8bbd 9dc6 8c3d 8db4 fdbc 34e8 d5bb
000002f0: 0d92 223d c635 ccbd f6fe 9ebd 434c 1bbe
00000300: 123d e03c 8ce6 cbbd 1bf9 aebd c679 adbd
00000310: 0748 3b3d 4192 34bc 0e6b a73d 3c2a ad3d
00000320: 67c4 adbd 8d51 04bc 3120 f2bd f151 903d
00000330: 24ce 053d f0d6 703d 90a8 0ebd f14a 85bb
00000340: f4d7 98bd a791 bb3c 7321 713c a540 c4bb
00000350: f329 c0bc c2de cc3c 38a7 f8bd 4a9d 86bd
00000360: b59d 633c 7ce4 8fbc 6528 973c 29d4 a4bd
00000370: e555 56bb 6619 85bd 465e 4f3d 7a47 a03d
00000380: 5255 a13d 5fe5 733d 2b84 4d3d 3952 223d
00000390: 9599 41bd 7f0f 0a3b 986b 9abd 9b9f 5fbd
000003a0: 4038 08bc f135 173d bd54 573d d4a7 39bc
000003b0: cf16 383c b9d9 333d 8019 923c 3d24 593d
000003c0: 70f8 723d 64eb adbc 55e6 523d 80d4 693d
000003d0: 97fa 96bc 5d69 9b3b fc44 573c 13e3 91bd
000003e0: 1dbd 773d ff36 523d 93c8 a43a 33b8 75ba
000003f0: 2c8c 593d a904 46bc 0bb6 273d 04c4 05bd

fc2.bias f4 [128]
-0.04516106 -0.03798769 -0.057432003 0.07850639 -0.084592514 0.22994344 -0.08466961 -0.07681983
-0.11962643 -0.106857814 -0.12025939 -0.048231237 -0.024800535 -0.011558226 -0.16237254 -0.12781145
-0.0501504 -0.08875376 -0.019344112 -0.14450915 -0.021125806 -0.041691698 0.5479121 -0.039527703
-0.07620064 -0.30611172 -0.19771194 -0.13900948 -0.27360022 0.039419424 -0.027510125 -0.28240496
-0.101688325 -0.07728804 -0.16664933 0.015122637 -0.15379351 0.2645939 0.04447154 -0.10496901
-0.107151195 0.15741956 -0.041045524 -0.08635885 -0.115048945 -0.24375264 -0.11918379 -0.06829684
-0.11485851 -0.14869422 -0.0652097 -0.07953598 0.2526009 -0.05579729 -0.12230045 -0.022976909
-0.21393494 -0.034357827 -0.107664965 0.20267743 -0.032854024 -0.1548561 -0.02817694 -0.027368665
-0.06792173 -0.008731843 -0.09724196 -0.042172723 -0.06287199 6.549211e-05 -0.07894666 -0.13271745
-0.14716543 -0.2100527 -0.19875108 0.0074326596 -0.13451183 -0.14571756 0.0026026492 0.02249917
0.32926378 -0.057495218 -0.078649834 -0.16306302 -0.06393517 -0.19002007 -0.07538106 -0.043346815
-0.24801807 -0.12103948 -0.030145649 -0.039891813 0.08574513 -0.06621095 -0.01186083 -0.041073214
-0.033275448 -0.102668144 0.5112891 -0.020848582 -0.26235762 0.14759986 -0.069555484 0.014587464
-0.013245857 0.16767237 -0.11179439 0.19007668 -0.119990565 0.021163067 -0.05040339 -0.047260836
-0.13084021 -0.040267292 -0.19038194 0.24219254 0.51232356 -0.10862899 -0.06461571 -0.01775752
-0.13443227 -0.04198313 0.09598842 -0.112300865 -0.039545033 0.33353448 -0.05325789 -0.06369602
00000000: cefa 38bd fb98 1bbd d23d 6bbd f5c7 a03d
00000010: d73e adbd 4b76 6b3e 4367 adbd b753 9dbd
00000020: b4fe f4bd 45d8 dabd 8e4a f6bd 1e8e 45bd
00000030: 7e2a cbbc b75e 3dbc fd44 26be 01e1 02be
00000040: 816a 4dbd 88c4 b5bd 8b77 9ebc 35fa 13be
00000050: 0710 adbc eac4 2abd f843 0c3f cde7 21bd
00000060: 150f 9cbd adba 9cbe 0075 4abe 8058 0ebe
00000070: 5415 8cbe 4376 213d ea5c e1bc 6297 90be
00000080: f841 d0bd 3149 9ebd 1fa6 2abe f0c4 773c
00000090: 0c7c 1dbe da78 873e ca27 363d fef9 d6bd
000000a0: 1672 dbbd 9832 213e 5a1f 28bd e9dc b0bd
000000b0: c89e ebbd 4b9a 79be a216 f4bd 37df 8bbd
000000c0: f03a ebbd 4c43 18be aa8c 85bd c3e3 a2bd
000000d0: e854 813e b38b 64bd a978 fabd 123a bcbc
000000e0: c311 5bbe cbba 0cbd 737f dcbd ac8a 4f3e
000000f0: f191 06bd 9992 1ebe 53d3 e6bc 4034 e0bc
00000100: 8c1a 8bbd 0110 0fbc cb26 c7bd 4ebd 2cbd
00000110: 08c3 80bd cf58 8938 c9ae a1bd 15e7 07be
00000120: 89b2 16be 0e18 57be 6785 4bbe ab8d f33b
00000130: 78bd 09be fc36 15be 3591 2a3b 2e50 b83c
00000140: 4395 a83e 1b80 6bbd 2a13 a1bd fef9 26be
00000150: 71f0 82bd 9f94 42be 6361 9abd 6e8c 31bd
00000160: 73f8 7dbe 8ce3 f7bd 02f4 f6bc 9965 23bd
00000170: 259b af3d 9b99 87bd ed53 42bc 633c 28bd
00000180: d64b 08bd ad43 d2bd d8e3 023f a5ca aabc
00000190: bd53 86be 6b24 173e 1b73 8ebd 4200 6f3c
000001a0: 2705 59bc 4eb2 2b3e 75f4 e4bd 76a3 423e
000001b0: 9dbd f5bd 2b5e ad3c c973 4ebd 9494 41bd
000001c0: fafa 05be 51ef 24bd 7cf3 42be 5201 783e
000001d0: a327 033f e078 debd 3e55 84bd 3878 91bc
000001e0: 9da8 09be 81f6 2bbd 9495 c43d fffd e5bd
000001f0: f9f9 21bd 08c5 aa3e f224 5abd 0f73 82bd

fc3.weight f4 [18, 128]
0.0140685085 -0.05687015 0.0034594939 -0.32887307 -0.109917045 0.13130432 -0.016678877 -0.07805218
-0.09648061 -0.057881683 -0.39454168 0.028880121 -0.053701084 -0.017840939 -0.02957435 -0.0155892
-0.082594365 -0.04249594 -0.0020514883 0.04430036 0.044477087 -0.046350844 0.29280668 -0.27618846
-0.046455406 -0.42105064 -0.90761673 0.04632293 -0.069175236 -0.24769393 -0.17832857 -0.2520162
0.01810991 -0.014323221 0.67056024 0.014041814 0.10798857 0.8715013 0.36694288 -0.016883088
0.2626829 -0.09032088 -0.19285412 0.003548733 0.8217232 0.29480547 -0.017344221 0.12220552
0.014229494 0.0038966238 0.0563912 -0.022470668 -0.32338247 0.1665266 -0.0036387122 0.073176876
0.006004818 0.06469756 -0.04448558 -0.47438017 0.09268962 -0.008436966 -0.14827435 0.047298808
-0.10958052 -0.037202 0.059351753 0.074330606 -0.04758581 -0.020528246 -0.07787995 -0.014319503
-0.01959328 -0.041633327 -0.0081896335 -0.029220954 -0.029660668 0.025967775 -0.09408179 0.051927134
0.5242867 0.0785706 0.0804743 0.050603207 -0.01811071 -0.048743773 0.007900171 -0.07788277
0.15842554 0.041294154 -0.009451702 0.01638942 0.7040126 0.040186528 0.14847435 -0.03093321
-0.010139968 -0.013151149 0.41198826 0.072712764 0.3330437 -0.18090099 0.034626007 -0.025028871
-0.02371398 -0.6702571 0.07642108 -0.39004943 -0.048506487 -0.121330045 0.029764032 0.025589282
-0.1725495 0.05192609 0.056259535 -0.65917397 0.7506443 -0.012284759 -0.053935707 -0.03017851
-0.015976336 -0.02533285 0.7974995 0.014494354 0.016481504 0.35204336 0.16190167 0.0464845
0.06755314 0.029290099 -0.07003909 0.1645645 -0.0016417524 -0.31713378 -0.06732792 0.04524972
-0.043578148 -0.041429058 -0.22276022 0.04613917 -0.07061701 0.039392482 0.04575964 0.031460673
0.03756572 0.033764873 0.03245318 -0.0016403336 -0.08070895 -0.077545814 0.3587957 -0.21613002
0.0493122 -0.37075365 -0.45792004 0.0288902 -0.16465569 0.06633863 -0.09184673 -0.07347496
-0.030909743 -0.105389915 0.6048108 -0.08567924 -0.027603297 0.66953146 0.31477717 0.119418606
0.2583405 0.09491979 -0.21188928 0.038057476 0.96742487 -0.005737101 -0.11664492 -0.009969744
0.09331515 -0.04266515 0.075601086 -0.21307145 -0.3154731 -0.18703279 -0.08614933 0.012916989
0.2953169 0.030348431 0.01810591 -0.09407352 -0.0028856227 0.048295926 -0.19620177 0.04565018
0.039748624 -0.019320859 -0.004447017 0.0005658773 -0.06613735 0.068452545 0.025479376 -0.0053247693
0.015509471 0.017608466 -0.11077337 0.061915297 0.00097054197 0.059096467 -0.19514495 -0.0746605
0.34838712 0.071656935 -0.03680616 -0.040170666 -0.03275164 0.09257666 0.057221867 0.0034028285
0.3615991 0.074239515 -0.02335532 -0.03154685 0.7052124 0.06527552 0.2135151 -0.07322817
0.0025355027 0.020342706 0.5515581 -0.011805173 0.18539435 -0.14473373 0.03304799 -0.08537224
-0.18217637 -0.2923958 -0.0498594 -0.31714278 -0.084524326 -0.18182337 0.0479196 -0.06547754
0.027429255 -0.061885156 -0.06389613 -0.030488143 0.6087669 0.016161758 -0.058142077 0.005012603
-0.071922034 -0.063155934 0.630421 -0.013895004 -0.043829016 0.37187538 -0.06274189 0.029802306
00000000: 9a7f 663c adf0 68bd adb8 623b 0d62 a8be
00000010: 301c e1bd a474 063e 24a2 88bc d2d9 9fbd
00000020: a097 c5bd 5815 6dbd 5e01 cabe 0196 ec3c
00000030: abf5 5bbd 2927 92bc e845 f2bc d869 7fbc
00000040: 3c27 a9bd 3910 2ebd 4372 06bb 4b74 353d
00000050: 9b2d 363d 62da 3dbd c2ea 953e 9368 8dbe
00000060: 0648 3ebd f393 d7be 9259 68bf 1dbd 3d3d
00000070: bfab 8dbd 7aa3 7dbe c49b 36be 4408 81be
00000080: 3c5b 943c f1ab 6abc d6a9 2b3f a30f 663c
00000090: 1d29 dd3d b61a 5f3f f0df bb3e 674e 8abc
000000a0: 607e 863e 27fa b8bd 8d7b 45be dc91 683b
000000b0: 745c 523f bef0 963e 7815 8ebc e346 fa3d
000000c0: d322 693c 805e 7f3b 75fa 663d 6814 b8bc
000000d0: 6392 a5be f385 2a3e 7677 6ebb c2dd 953d
000000e0: 10c4 c43b 2880 843d 8336 36bd f5e1 f2be
000000f0: 0ed4 bd3d 333b 0abc 3bd5 17be 65bc 413d
00000100: c06b e0bd 2061 18bd d31a 733d a53a 983d
00000110: 57e9 42bd da2a a8bc 867f 9fbd 599c 6abc
00000120: 1682 a0bc b587 2abd d02d 06bc c860 efbc
00000130: eefa f2bc 5fba d43c f4ad c0bd 8cb1 543d
00000140: a737 063f 9fe9 a03d b6cf a43d 4f45 4f3d
00000150: e95c 94bc 8da7 47bd b86f 013c 0081 9fbd
00000160: 4e3a 223e 0f24 293d 50db 1abc 1b43 863c
00000170: 2b3a 343f a19a 243d a909 183e a567 fdbc
00000180: 1c22 26bc eb77 57bc 20f0 d23e 6eea 943d
00000190: b484 aa3e 1c3e 39be 00d4 0d3d 5909 cdbc
000001a0: d243 c2bc f895 2bbf a882 9c3d 8fb4 c7be
000001b0: bdae 46bd e37b f8bd b3d3 f33c 9da0 d13c
000001c0: d1b0 30be 74b0 543d 6670 663d a0bf 28bf
000001d0: 3a2a 403f 0446 49bc b0eb 5cbd ec38 f7bc
000001e0: cee0 82bc d686 cfbc ed28 4c3f ba79 6d3c
000001f0: 3804 873c 073f b43e 8dc9 253e 8866 3e3d
00000200: 4d59 8a3d caf1 ef3c a870 8fbd 9983 283e
00000210: 1230 d7ba 5c5f a2be 38e3 89bd c557 393d
00000220: 007f 32bd 84b1 29bd 411b 64be 6dfc 3c3d
00000230: a79f 90bd 035a 213d 766e 3b3d e8dc 003d
00000240: 83de 193d 094d 0a3d a0ed 043d 7600 d7ba
00000250: bc4a a5bd 57d0 9ebd 12b4 b73e 3051 5dbe
00000260: 97fb 493d 6cd3 bdbe 7f74 eabe 24ab ec3c
00000270: 809b 28be 8cdc 873d 231a bcbd 0a7a 96bd
00000280: 6e36 fdbc abd6 d7bd e1d4 1a3f 9978 afbd
00000290: 4f20 e2bc 6a66 2b3f 792a a13e be91 f43d
000002a0: 3545 843e 4f65 c23d 81f9 58be 28e2 1b3d
000002b0: 28a9 773f 4bfe bbbb 88e3 eebd 2358 23bc
000002c0: 031c bf3d a7c1 2ebd bed4 9a3d 672f 5abe
000002d0: b185 a1be 8685 3fbe 0f6f b0bd c7a1 533c
000002e0: c733 973e 469d f83c d852 943c 9ea9 c0bd
000002f0: b71c 3dbb f3d1 453d 1ee9 48be affb 3a3d
00000300: 74cf 223d c746 9ebc 48b8 91bb 6257 143a
00000310: 0573 87bd d930 8c3d 20ba d03c 677b aebb
00000320: 701b 7e3c a13f 903c 26dd e2bd e59a 7d3d
00000330: f86b 7e3a 230f 723d 14d4 47be 9be7 98bd
00000340: cc5f b23e dfc0 923d 0ec2 16bd ff89 24bd
00000350: 9526 06bd d598 bd3d 7a61 6a3d fd01 5f3b
00000360: 8423 b93e e30a 983d a853 bfbc 4537 01bd
00000370: cd88 343f 2caf 853d b4a3 5a3e a7f8 95bd
00000380: ad2a 263b bfa5 a63c e932 0d3f 7c6a 41bc
00000390: 04d8 3d3e 1435 14be 545d 073d a4d7 aebd
000003a0: 718c 3abe e7b4 95be 5f39 4cbd 8a60 a2be
000003b0: 171b adbd e82f 3abe 5847 443d 1719 86bd
000003c0: 51b3 e03c 4a7b 7dbd f9db 82bd 45c2 f9bc
000003d0: 26d8 1b3f aa65 843c 6326 6ebd c340 a43b
000003e0: dc4b 93bd e657 81bd 4563 213f dfa7 63bc
000003f0: 0e86 33bd 7366 be3e d27e 80bd f723 f43c

fc3.bias f4 [18]
-0.08530839 -0.05241803 0.121897765 -0.16194852 -0.12690988 -0.2052659 -0.34544736 -0.13638242
-0.0017675182 0.17296197 -0.4761619 -0.28072333 -0.0017717871 0.027433798 0.009935816 -0.29569173
-0.8082697 -0.49984345
00000000: 2ab6 aebd 4ab4 56bd 89a5 f93d d5d5 25be
00000010: aaf4 01be 3931 52be 7ade b0be d5a7 0bbe
00000020: 12ac e7ba f11c 313e 7ecb f3be f8ba 8fbe
00000030: 4f3b e8ba d8bc e03c d5c9 223c e864 97be
00000040: c3ea 4ebf 7beb ffbe

fc1.weight f4 [128, 59]
-0.05958438 0.05201713 -0.10189406 0.11445925 -0.0913519 -0.057369854 -0.10712413 -0.057235345
0.05037024 -0.07883871 -0.088776134 0.091447406 -0.12845673 -0.11862932 0.07254332 0.009477541
-0.08443516 -0.080773756 -0.095841706 -0.01963559 -0.05967624 0.08926086 0.016217975 -0.023160974
0.017564297 -0.07835164 -0.014233778 -0.014526155 -0.10646353 -0.1065458 -0.11397716 -0.08706049
0.094225794 -0.038574733 -0.07162387 -0.12046487 -0.00054427685 -0.0033476984 -0.060101233 0.059019726
-0.025709717 -0.054934327 0.009311465 0.10006422 0.04354598 -0.04240665 -0.11178652 -0.063159056
0.030134624 -0.027585292 -0.08358897 -0.013310526 0.022264494 -0.09781417 -0.0024634465 -0.07010154
0.06828982 0.07526863 0.0031041007 0.040014055 0.15465982 0.036952812 0.16864166 0.05164693
-0.12034085 0.028585779 -0.06145988 -0.061806235 -0.100961775 -0.053299755 0.028812652 0.07986675
-0.030100865 0.020108908 0.055494558 0.010220133 0.07058908 -0.08450056 0.097527385 0.04383401
-0.08166469 0.04731809 0.10363767 0.12040174 -0.048020706 0.068582766 -0.015563791 0.035171505
0.05767378 -0.03633066 -0.08534104 0.05912412 -0.15238878 -0.06256101 -0.014959776 0.03354724
-0.14126894 0.059411526 0.047009822 -0.08820833 0.054268144 0.07170077 -0.02814415 0.108838625
0.102705665 -0.09210174 0.018678365 0.021590734 -0.12907824 -0.09818001 0.08007726 0.027243687
-0.0807806 0.029951451 0.02912715 -0.058860995 0.13735941 0.0548312 0.03119214 0.058899637
-0.17633197 0.019016728 -0.13217275 -0.03498885 -0.07009488 0.11915524 0.10025275 -0.1113247
-0.00522787 0.12289582 -0.10809519 -0.03848993 -0.24359699 0.05308683 0.23774022 0.14766143
0.027672347 0.116650864 0.014134597 0.0034281104 -0.023238588 -0.08330047 0.09831676 0.04559089
0.016522922 -0.0024369396 -0.004173607 -0.0066421204 -0.01630633 -0.0052630357 -0.11603181 0.057674587
-0.18078756 -0.12748365 -0.14131464 0.14509436 -0.19349432 0.123719156 -0.015680877 -0.004347109
0.060285304 -0.09367324 0.056317154 -0.0034217944 0.0561206 -0.02798387 -0.044752464 0.08700875
0.08111076 0.02423102 0.00048389618 0.11832292 -0.22742909 -0.01093638 -0.12992813 0.015113236
0.15103517 -0.038097803 0.16814624 -0.15498678 0.16258381 -0.07820279 0.02250909 0.043648988
0.038555566 -0.18997154 0.0917579 -0.053544834 0.08119677 -0.06991916 0.036755472 -0.0613497
-0.019893201 -0.053507764 -0.07903186 0.10836817 0.06990604 -0.11318792 0.077466175 -0.10614886
-0.11700868 -0.09275219 0.09410941 -0.118268035 0.054358453 -0.025348306 -0.059557285 0.07159173
0.12396126 0.07969942 -0.20235355 0.014129967 -0.017586209 -0.02526733 -0.06381647 0.0145924045
0.07960333 -0.002955369 -0.031328373 0.04602253 0.07555351 -0.049406845 0.11905441 0.101665586
0.11818984 -0.00751694 -0.06816454 -0.07775499 -0.03277056 0.023028998 -0.15942591 -0.0044469065
0.10044088 -0.009412685 0.103023306 0.0535231 0.105504006 0.121408165 -0.060684223 0.044341657
-0.11127663 -0.10486527 -0.016931096 0.013312232 -0.0025363525 -0.10810917 0.021747058 -0.058736537
0.015671834 -0.12792133 -0.031443022 -0.15404776 -0.0030593004 -0.08188233 0.0830916 0.026584435
00000000: c00e 74bd ea0f 553d d5ad d0bd 9c69 ea3d
00000010: b416 bbbd a7fc 6abd e563 dbbd 9c6f 6abd
00000020: 0651 4e3d 3176 a1bd 43d0 b5bd c748 bb3d
00000030: 298a 03be eef3 f2bd 9891 943d b047 1b3c
00000040: 57ec acbd b66c a5bd a848 c4bd d1da a0bc
00000050: 136f 74bd 66ce b63d 8fdb 843c 15bc bdbc
00000060: 00e3 8f3c d376 a0bd cb34 69bc 1cff 6dbc
00000070: 8d09 dabd af34 dabd db6c e9bd c54c b2bd
00000080: 74f9 c03d 8a00 1ebd 89af 92bd 49b6 f6bd
00000090: cdad 0eba 0f65 5bbb b62c 76bd abbe 713d
000000a0: 2f9d d2bc d102 61bd 1d8f 183c 78ee cc3d
000000b0: 455d 323d 98b2 2dbd 55f0 e4bd 8959 81bd
000000c0: e3dc f63c 8dfa e1bc b230 abbd 6414 5abc
000000d0: 0764 b63c cc52 c8bd c671 21bb 6591 8fbd
000000e0: 88db 8b3d 7126 9a3d 2b6e 4b3b c7e5 233d
000000f0: 255f 1e3e d55b 173d 66b0 2c3e bb8b 533d
00000100: 4375 f6bd b92c ea3c 5bbd 7bbd 8928 7dbd
00000110: 0cc5 cebd d850 5abd 8308 ec3c 2e91 a33d
00000120: 1796 f6bc 70bb a43c 434e 633d 5872 273c
00000130: 0291 903d a10e adbd 70bc c73d 4a8b 333d
00000140: d13f a7bd 9dd0 413d fd3f d43d 3095 f63d
00000150: 5cb1 44bd 1f75 8c3d 45ff 7ebc ff0f 103d
00000160: 573b 6c3d 75cf 14bd 48c7 aebd 222c 723d
00000170: ce0b 1cbe fd1f 80bd d919 75bc d568 093d
00000180: cea8 10be 8059 733d 5f8d 403d 92a6 b4bd
00000190: 4648 5e3d dad7 923d 8f8e e6bc c9e6 de3d
000001a0: 5957 d23d d69f bcbd 5f03 993c 0ddf b03c
000001b0: 162d 04be 9a12 c9bd 8cff a33d 272e df3c
000001c0: 4d70 a5bd bf5c f53c 109c ee3c 3a18 71bd
000001d0: f2a7 0c3e ae96 603d a986 ff3c bf40 713d
000001e0: 5e90 34be f8c8 9b3c 4b58 07be 7850 0fbd
000001f0: e88d 8fbd aa07 f43d 5051 cd3d 34fe e3bd
00000200: 8d4e abbb ceb0 fb3d 0361 ddbd 9ea7 1dbd
00000210: 7d71 79be 9371 593d 2c72 733e 8f34 173e
00000220: 1eb1 e23c a6e6 ee3d cc94 673c 26aa 603b
00000230: da5e bebc 7099 aabd 4c5a c93d 83bd 3a3d
00000240: 145b 873c 10b5 1fbb c1c2 88bb 25a6 d9bb
00000250: da94 85bc 8b75 acbb 16a2 edbd 303c 6c3d
00000260: 6020 39be 138b 02be c9b4 10be 9e93 143e
00000270: 6023 46be 7860 fd3d 2f75 80bc 3172 8ebb
00000280: b9ed 763d c1d7 bfbd d1ac 663d 2f40 60bb
00000290: b7de 653d 6e3e e5bc 5c4e 37bd a531 b23d
000002a0: 661d a63d 2280 c63c 72b3 fd39 4953 f23d
000002b0: 2ce3 68be 812e 33bc e10b 05be 829d 773c
000002c0: f7a8 1a3e 710c 1cbd 872e 2c3e dbb4 1ebe
000002d0: 5f7c 263e c928 a0bd fc64 b83c 48c9 323d
000002e0: 71ec 1d3d e687 42be 91eb bb3d d451 5bbd
000002f0: 7e4a a63d c731 8fbd e88c 163d d349 7bbd
00000300: 11f7 a2bc f52a 5bbd 75db a1bd 22f0 dd3d
00000310: e62a 8f3d 11cf e7bd 96a6 9e3d 9364 d9bd
00000320: 3fa2 efbd dcf4 bdbd 6fbc c03d 8336 f2bd
00000330: f8a6 5e3d 40a7 cfbc 57f2 73bd af9e 923d
00000340: 67df fd3d 7339 a33d c535 4fbe 6181 673c
00000350: f410 90bc 6ffd cebc 36b2 82bd fb14 6f3c
00000360: 1207 a33d ddae 41bb 2e52 00bd 1f82 3c3d
00000370: ccbb 9a3d d55e 4abd ccd2 f33d 0c36 d03d
00000380: 840d f23d aa50 f6bb da99 8bbd 023e 9fbd
00000390: 6c3a 06bd 4fa7 bc3c 8c40 23be 5bb7 91bb
000003a0: f3b3 cd3d aa37 1abc e2fd d23d 0a3b 5b3d
000003b0: 7c12 d83d d8a4 f83d 0590 78bd 999f 353d
000003c0: 00e5 e3bd 9ac3 d6bd 15b3 8abc 8c1b 5a3c
000003d0: ef38 26bb 5768 ddbd e326 b23c b995 70bd
000003e0: 3862 803c cffd 02be 66ca 00bd b2be 1dbe
000003f0: 8b7e 48bb ecb1 a7bd ee2b aa3d 9ac7 d93c

fc1.bias f4 [128]
0.00797295 -0.0014392178 0.03169801 0.0034006033 -0.075440116 0.08798263 -0.1250944 -0.13848054
-0.029093087 -0.02636449 -0.05501822 -0.38315785 -0.059410416 -0.09878334 -0.16506761 0.13863625
0.26253018 -0.16195539 0.030060777 -0.052189328 0.011279355 -0.0039216215 -0.25453538 -0.19716932
-0.038205743 -0.018285178 -0.12536854 0.020140115 -0.12426641 -0.08717047 0.25811848 -0.07706091
-0.08164315 0.09190515 -0.10894556 0.020572456 -0.11633557 0.067149915 -0.10744843 -0.12477899
0.23953918 -0.04509688 -0.05811047 0.043016877 -0.12423021 -0.11153335 0.027664784 -0.18804768
0.067397885 -0.04296687 -0.108311266 -0.18549202 -0.017206542 0.100711815 -0.005742431 -0.12370464
-0.03553781 0.041399416 -0.08510479 -0.12684844 -0.017952783 0.034431577 -0.021407427 0.17985617
-0.051424116 0.17831236 -0.011590813 -0.16126484 -0.11794156 -0.117416956 -0.16201408 -0.122399405
-0.030797658 -0.19138815 0.0636896 0.043287918 -0.1995155 0.04037811 -0.051160313 -0.14563817
-0.14326075 -0.06756872 -0.12163751 -0.07998468 -0.05233337 0.0487149 0.024667468 -0.051610626
-0.13560672 -0.08148003 -0.0067789243 0.010594384 -0.16277635 0.0032212422 -0.0040543377 -0.019701637
-0.105370395 -0.17885041 0.036324587 -0.07800626 0.120374486 -0.14310999 0.0839618 -0.15017325
0.02850758 -0.118608676 -0.1391671 0.05754044 0.05338344 -0.09350358 -0.122399986 -0.050994117
-0.13841629 -0.031622384 0.043460287 -0.12774238 -0.046511583 0.074612394 0.08225349 -0.16216823
0.0038007223 -0.21704139 -0.012231802 -0.14798395 -0.21810949 -0.06555362 -0.18061261 -0.05050035
00000000: faa0 023c 23a4 bcba c6d5 013d a8dc 5e3b
00000010: 5980 9abd 3d30 b43d bf18 00be d8cd 0dbe
00000020: a054 eebc 58fa d7bc c95a 61bd 442d c4be
00000030: 5658 73bd eb4e cabd 7c07 29be a9f6 0d3e
00000040: 5b6a 863e a2d7 25be 0542 f63c 7ac4 55bd
00000050: 0bcd 383c f280 80bb 7652 82be c1e6 49be
00000060: a07d 1cbd ccca 95bc 9c60 00be e2fc a43c
00000070: 637f febd 6e86 b2bd 1b28 843e 1cd2 9dbd
00000080: 8634 a7bd c438 bc3d da1e dfbd 9187 a83c
00000090: 5841 eebd e585 893d ec0d dcbd 218c ffbd
000000a0: c249 753e 82b7 38bd 3f05 6ebd 7732 303d
000000b0: 696c febd 996b e4bd 42a1 e23c 928f 40be
000000c0: e707 8a3d 07fe 2fbd 4cd2 ddbd 9ff1 3dbe
000000d0: bcf4 8cbc ff41 ce3d 012b bcbb dc58 fdbd
000000e0: 1890 11bd 6f92 293d 6c4b aebd 8fe4 01be
000000f0: b711 93bc 2008 0d3d a15e afbc 372c 383e
00000100: 18a2 52bd 8497 363e 65e7 3dbc 9c22 25be
00000110: 588b f1bd 4d78 f0bd 05e7 25be 8aac fabd
00000120: 5f4b fcbc 41fb 43be b16f 823d ac4e 313d
00000130: cb4d 4cbe 8463 253d 7a8d 51bd 2c22 15be
00000140: f2b2 12be 7861 8abd 161d f9bd 02cf a3bd
00000150: 845b 56bd 4689 473d 6e13 ca3c aa65 53bd
00000160: 7ddc 0abe 01df a6bd bd21 debb 1194 2d3c
00000170: d8ae 26be 7a1b 533b 40da 84bb 5465 a1bc
00000180: 6fcc d7bd 9024 37be 17c9 143d bfc1 9fbd
00000190: e686 f63d 6d8b 12be 2af4 ab3d 04c7 19be
000001a0: ba88 e93c 1be9 f2bd d281 0ebe 86af 6b3d
000001b0: 98a8 5a3d ce7e bfbd d8ac fabd 35df 50bd
000001c0: 00bd 0dbe 7986 01bd 6a03 323d e6ce 02be
000001d0: ee82 3ebd 62ce 983d 8574 a83d 6e0f 26be
000001e0: 8a15 793b 1940 5ebe e567 48bc 1b89 17be
000001f0: 1858 5fbe fa40 86bd 83f2 38be 74d9 4ebd

fc2.weight f4 [128, 128]
-0.01937323 0.020202195 -0.07431972 -0.052522283 -0.068909556 -0.019829586 -0.027665092 0.07143514
0.046547864 0.07298106 0.056269024 0.03131726 0.027519932 0.060463827 -0.04847871 -0.093599364
-0.10133002 -0.039524537 -0.044749975 -0.070843205 -0.10598782 -0.055350892 -0.0035880455 0.0402626
-0.015901458 -0.009036844 -0.020364903 0.006719767 0.05017791 -0.051763307 -0.064230375 -0.09299362
-0.020559879 -0.035011332 -0.051539376 0.07961549 0.049619064 -0.08464814 -0.021761019 0.009351079
-0.096409254 -0.12627275 -0.0765902 -0.061903235 -0.0089036375 0.044319756 0.0014859714 -0.01583846
0.06608336 0.036589395 0.025555879 -0.06575458 0.070847236 0.03746642 0.012130315 0.025902778
0.02324406 -0.029669305 0.0344665 0.016619068 -0.079627335 0.011317085 -0.05508198 0.013975387
-0.01745711 -0.07838953 -0.078099795 0.0072874115 0.035281602 -0.08510131 -0.078158244 -0.083233595
0.049838174 -0.046090774 0.0056767208 0.03450265 -0.08476069 0.024880538 0.007386446 -0.049229458
-0.040727656 -0.060216095 -0.005124593 0.031061416 -0.06819999 -0.10674962 -0.02299378 -0.045806576
0.00519678 -0.028956395 0.03884011 0.019804161 -0.004219816 0.054840185 -0.005111696 -0.04762071
-0.052374993 0.07673632 -0.08672143 -0.07206606 -0.0040739775 -0.03408233 -0.049268454 0.04193528
0.050315738 -0.0554368 0.0628014 0.049958777 -0.008241079 -0.14367162 -0.03984686 -0.06395385
-0.04724748 -0.03551047 -0.041198883 -0.07141813 -0.029431144 -0.0035774878 0.08767556 -0.0056159515
-0.07595651 0.010026752 0.010065268 0.023857974 0.07460323 -0.060430773 0.014553412 -0.10631651
-0.047761504 -0.019755017 0.03131294 0.028009878 -0.007373022 -0.07382277 -0.02219475 0.07059575
0.06614734 0.06296385 0.023956627 -0.01630454 -0.014947422 0.080787815 -0.009723857 -0.03166004
-0.1704091 -0.059813373 -0.021188485 0.048361033 -0.022454502 0.073244445 0.015333508 0.05647829
-0.019581236 0.045001633 -0.049894165 0.002062614 -0.040820815 0.05305834 -0.06793841 0.020446096
-0.071812645 -0.07566931 0.00051474513 0.028277721 -0.034441214 -0.060270667 -0.074119985 -0.08481178
-0.11350881 -0.05594689 -0.027734945 -5.7635816e-06 0.037100565 -0.070020504 0.0112554105 -0.059383232
-0.07889423 -0.0070249313 -0.06667091 -0.103506714 0.07435879 -0.051866923 -0.026283607 0.08510332
-0.068124354 0.0687382 -0.030969882 -0.006527925 0.039690066 -0.09971194 -0.07763474 -0.1516581
0.02737287 -0.09956083 -0.08543607 -0.08470492 0.045722988 -0.011021198 0.08174716 0.08455321
-0.084847264 -0.008076084 -0.11822546 0.07046879 0.032667294 0.05879873 -0.034828722 -0.0040677716
-0.07463065 0.0228966 0.014717448 -0.0059891515 -0.023457503 0.025008563 -0.121412694 -0.06572969
0.013892581 -0.017565005 0.018451879 -0.08048279 -0.0032705006 -0.06498985 0.050627016 0.07826133
0.07877602 0.059544917 0.050174873 0.039629195 -0.047265608 0.0021066365 -0.07540053 -0.05459557
-0.008314192 0.036916677 0.052571047 -0.011331517 0.011235907 0.04390881 0.017834425 0.053013075
0.05931896 -0.021230407 0.051489193 0.05708742 -0.018430037 0.004742785 0.013139006 -0.07123389
0.060483087 0.05132198 0.0012571983 -0.0009373456 0.053112194 -0.012086072 0.040945094 -0.03265764
00000000: 9cb4 9ebc 137f a53c f034 98bd 9b21 57bd
00000010: 7420 8dbd a871 a2bc e7a1 e2bc 964c 923d
00000020: f9a8 3e3d 1877 953d 597a 663d 8746 003d
00000030: 7b71 e13c eba8 773d 9d91 46bd 06b1 bfbd
00000040: 1d86 cfbd 7be4 21bd c04b 37bd 3e16 91bd
00000050: 2410 d9bd 9eb7 62bd 6a25 6bbb 65ea 243d
00000060: c643 82bc 450f 14bc 4cd4 a6bc 7e31 dc3b
00000070: 5a87 4d3d c305 54bd 378b 83bd 7073 bebd
00000080: 316d a8bc 0b68 0fbd f41a 53bd 720d a33d
00000090: 5c3d 4b3d 015c adbd 2a44 b2bc 4535 193c
000000a0: 3772 c5bd a54d 01be 53db 9cbd 3f8e 7dbd
000000b0: 90e0 11bc a288 353d edc4 c23a a8bf 81bc
000000c0: b656 873d c3de 153d 905a d13c 56aa 86bd
000000d0: 5b18 913d 6476 193d 3bbe 463c 1032 d43c
000000e0: 546a be3c 0b0d f3bc bf2c 0d3d b624 883c
000000f0: a813 a3bd 4b6b 393c a49d 61bd 06f9 643c
00000100: 3702 8fbc b18a a0bd c9f2 9fbd 3dcb ee3b
00000110: 7183 103d 9849 aebd 6e11 a0bd 6076 aabd
00000120: 1d23 4c3d aec9 3cbd c903 ba3b a752 0d3d
00000130: 0397 adbd 45d2 cb3c 000a f23b d4a4 49bd
00000140: 0bd2 26bd 27a5 76bd 34ec a7bb 8374 fe3c
00000150: 70ac 8bbd 8b9f dabd 745d bcbc ad9f 3bbd
00000160: c049 aa3b f635 edbc cf16 1f3d 563c a23c
00000170: 6246 8abb 1aa0 603d 0480 a7bb ef0d 43bd
00000180: 2987 56bd ef27 9d3d 019b b1bd 5f97 93bd
00000190: 007f 85bb ea99 0bbd b8cd 49bd 54c4 2b3d
000001a0: e017 4e3d b311 63bd 059e 803d 93a1 4c3d
000001b0: 9705 07bc a71e 13be 7636 23bd 3cfa 82bd
000001c0: 9386 41bd 6d73 11bd 29c0 28bd ab43 92bd
000001d0: 9519 f1bc 4974 6abb 3e8f b33d 0406 b8bb
000001e0: 168f 9bbd 3f47 243c cbe8 243c cc71 c33c
000001f0: 94c9 983d 4286 77bd 6f71 6e3c 78bc d9bd
00000200: 91a1 43bd 46d5 a1bc ff41 003d f974 e53c
00000210: 6499 f1bb 6430 97bd c4d1 b5bc 8194 903d
00000220: 4278 873d 31f3 803d b040 c43c 1991 85bc
00000230: 08e6 74bc 1574 a53d d050 1fbc f5ad 01bd
00000240: b97f 2ebe defe 74bd 7993 adbc 3816 463d
00000250: 81f2 b7bc 2f01 963d 6539 7b3c c855 673d
00000260: d468 a0bc a253 383d d35d 4cbd ec2c 073b
00000270: ba33 27bd b453 593d 4b23 8bbd 927e a73c
00000280: 8212 93bd 83f8 9abd f6ef 063a aea6 e73c
00000290: 3b12 0dbd 60de 76bd 38cc 97bd ccb1 adbd
000002a0: 4f77 e8bd 9128 65bd 6534 e3bc ca64 c1b6
000002b0: c3f6 173d e966 8fbd 9d68 383c d53b 73bd
000002c0: 4c93 a1bd 6531 e6bb c28a 88bd 54fb d3bd
000002d0: 6c49 983d 6972 54bd b850 d7bc a64a ae3d
000002e0: c884 8bbd 9dc6 8c3d 8db4 fdbc 34e8 d5bb
000002f0: 0d92 223d c635 ccbd f6fe 9ebd 434c 1bbe
00000300: 123d e03c 8ce6 cbbd 1bf9 aebd c679 adbd
00000310: 0748 3b3d 4192 34bc 0e6b a73d 3c2a ad3d
00000320: 67c4 adbd 8d51 04bc 3120 f2bd f151 903d
00000330: 24ce 053d f0d6 703d 90a8 0ebd f14a 85bb
00000340: f4d7 98bd a791 bb3c 7321 713c a540 c4bb
00000350: f329 c0bc c2de cc3c 38a7 f8bd 4a9d 86bd
00000360: b59d 633c 7ce4 8fbc 6528 973c 29d4 a4bd
00000370: e555 56bb 6619 85bd 465e 4f3d 7a47 a03d
00000380: 5255 a13d 5fe5 733d 2b84 4d3d 3952 223d
00000390: 9599 41bd 7f0f 0a3b 986b 9abd 9b9f 5fbd
000003a0: 4038 08bc f135 173d bd54 573d d4a7 39bc
000003b0: cf16 383c b9d9 333d 8019 923c 3d24 593d
000003c0: 70f8 723d 64eb adbc 55e6 523d 80d4 693d
000003d0: 97fa 96bc 5d69 9b3b fc44 573c 13e3 91bd
000003e0: 1dbd 773d ff36 523d 93c8 a43a 33b8 75ba
000003f0: 2c8c 593d a904 46bc 0bb6 273d 04c4 05bd

fc2.bias f4 [128]
-0.04516106 -0.03798769 -0.057432003 0.07850639 -0.084592514 0.22994344 -0.08466961 -0.07681983
-0.11962643 -0.106857814 -0.12025939 -0.048231237 -0.024800535 -0.011558226 -0.16237254 -0.12781145
-0.0501504 -0.08875376 -0.019344112 -0.14450915 -0.021125806 -0.041691698 0.5479121 -0.039527703
-0.07620064 -0.30611172 -0.19771194 -0.13900948 -0.27360022 0.039419424 -0.027510125 -0.28240496
-0.101688325 -0.07728804 -0.16664933 0.015122637 -0.15379351 0.2645939 0.04447154 -0.10496901
-0.107151195 0.15741956 -0.041045524 -0.08635885 -0.115048945 -0.24375264 -0.11918379 -0.06829684
-0.11485851 -0.14869422 -0.0652097 -0.07953598 0.2526009 -0.05579729 -0.12230045 -0.022976909
-0.21393494 -0.034357827 -0.107664965 0.20267743 -0.032854024 -0.1548561 -0.02817694 -0.027368665
-0.06792173 -0.008731843 -0.09724196 -0.042172723 -0.06287199 6.549211e-05 -0.07894666 -0.13271745
-0.14716543 -0.2100527 -0.19875108 0.0074326596 -0.13451183 -0.14571756 0.0026026492 0.02249917
0.32926378 -0.057495218 -0.078649834 -0.16306302 -0.06393517 -0.19002007 -0.07538106 -0.043346815
-0.24801807 -0.12103948 -0.030145649 -0.039891813 0.08574513 -0.06621095 -0.01186083 -0.041073214
-0.033275448 -0.102668144 0.5112891 -0.020848582 -0.26235762 0.14759986 -0.069555484 0.014587464
-0.013245857 0.16767237 -0.11179439 0.19007668 -0.119990565 0.021163067 -0.05040339 -0.047260836
-0.13084021 -0.040267292 -0.19038194 0.24219254 0.51232356 -0.10862899 -0.06461571 -0.01775752
-0.13443227 -0.04198313 0.09598842 -0.112300865 -0.039545033 0.33353448 -0.05325789 -0.06369602
00000000: cefa 38bd fb98 1bbd d23d 6bbd f5c7 a03d
00000010: d73e adbd 4b76 6b3e 4367 adbd b753 9dbd
00000020: b4fe f4bd 45d8 dabd 8e4a f6bd 1e8e 45bd
00000030: 7e2a cbbc b75e 3dbc fd44 26be 01e1 02be
00000040: 816a 4dbd 88c4 b5bd 8b77 9ebc 35fa 13be
00000050: 0710 adbc eac4 2abd f843 0c3f cde7 21bd
00000060: 150f 9cbd adba 9cbe 0075 4abe 8058 0ebe
00000070: 5415 8cbe 4376 213d ea5c e1bc 6297 90be
00000080: f841 d0bd 3149 9ebd 1fa6 2abe f0c4 773c
00000090: 0c7c 1dbe da78 873e ca27 363d fef9 d6bd
000000a0: 1672 dbbd 9832 213e 5a1f 28bd e9dc b0bd
000000b0: c89e ebbd 4b9a 79be a216 f4bd 37df 8bbd
000000c0: f03a ebbd 4c43 18be aa8c 85bd c3e3 a2bd
000000d0: e854 813e b38b 64bd a978 fabd 123a bcbc
000000e0: c311 5bbe cbba 0cbd 737f dcbd ac8a 4f3e
000000f0: f191 06bd 9992 1ebe 53d3 e6bc 4034 e0bc
00000100: 8c1a 8bbd 0110 0fbc cb26 c7bd 4ebd 2cbd
00000110: 08c3 80bd cf58 8938 c9ae a1bd 15e7 07be
00000120: 89b2 16be 0e18 57be 6785 4bbe ab8d f33b
00000130: 78bd 09be fc36 15be 3591 2a3b 2e50 b83c
00000140: 4395 a83e 1b80 6bbd 2a13 a1bd fef9 26be
00000150: 71f0 82bd 9f94 42be 6361 9abd 6e8c 31bd
00000160: 73f8 7dbe 8ce3 f7bd 02f4 f6bc 9965 23bd
00000170: 259b af3d 9b99 87bd ed53 42bc 633c 28bd
00000180: d64b 08bd ad43 d2bd d8e3 023f a5ca aabc
00000190: bd53 86be 6b24 173e 1b73 8ebd 4200 6f3c
000001a0: 2705 59bc 4eb2 2b3e 75f4 e4bd 76a3 423e
000001b0: 9dbd f5bd 2b5e ad3c c973 4ebd 9494 41bd
000001c0: fafa 05be 51ef 24bd 7cf3 42be 5201 783e
000001d0: a327 033f e078 debd 3e55 84bd 3878 91bc
000001e0: 9da8 09be 81f6 2bbd 9495 c43d fffd e5bd
000001f0: f9f9 21bd 08c5 aa3e f224 5abd 0f73 82bd
